<?xml version="1.0"?>
<net name="0003_EmoNet_ResNet10" version="6" batch="1">
	<layers>
		<layer name="data" type="Input" precision="FP32" id="0">
			<output>
				<port id="0">
					<dim>1</dim>
					<dim>3</dim>
					<dim>64</dim>
					<dim>64</dim>
				</port>
			</output>
		</layer>
		<layer name="Mul_1152/Fused_Mul_/FusedScaleShift_" type="ScaleShift" precision="FP32" id="1">
			<data broadcast="0" />
			<input>
				<port id="0">
					<dim>1</dim>
					<dim>3</dim>
					<dim>64</dim>
					<dim>64</dim>
				</port>
			</input>
			<output>
				<port id="1">
					<dim>1</dim>
					<dim>3</dim>
					<dim>64</dim>
					<dim>64</dim>
				</port>
			</output>
			<blobs>
				<biases offset="0" size="12" />
				<weights offset="12" size="12" />
			</blobs>
		</layer>
		<layer name="Convolution1" type="Convolution" precision="FP32" id="2">
			<data dilations="1,1" group="1" kernel="7,7" output="64" pads_begin="3,3" pads_end="3,3" quantization_level="FP32" strides="2,2" />
			<input>
				<port id="0">
					<dim>1</dim>
					<dim>3</dim>
					<dim>64</dim>
					<dim>64</dim>
				</port>
			</input>
			<output>
				<port id="1">
					<dim>1</dim>
					<dim>64</dim>
					<dim>32</dim>
					<dim>32</dim>
				</port>
			</output>
			<blobs>
				<biases offset="24" size="256" />
				<weights offset="280" size="37632" />
			</blobs>
		</layer>
		<layer name="ReLU1" type="ReLU" precision="FP32" id="3">
			<input>
				<port id="0">
					<dim>1</dim>
					<dim>64</dim>
					<dim>32</dim>
					<dim>32</dim>
				</port>
			</input>
			<output>
				<port id="1">
					<dim>1</dim>
					<dim>64</dim>
					<dim>32</dim>
					<dim>32</dim>
				</port>
			</output>
		</layer>
		<layer name="Pooling1" type="Pooling" precision="FP32" id="4">
			<data exclude-pad="true" kernel="3,3" pads_begin="0,0" pads_end="0,0" pool-method="max" rounding_type="ceil" strides="2,2" />
			<input>
				<port id="0">
					<dim>1</dim>
					<dim>64</dim>
					<dim>32</dim>
					<dim>32</dim>
				</port>
			</input>
			<output>
				<port id="1">
					<dim>1</dim>
					<dim>64</dim>
					<dim>16</dim>
					<dim>16</dim>
				</port>
			</output>
		</layer>
		<layer name="Convolution2" type="Convolution" precision="FP32" id="5">
			<data dilations="1,1" group="1" kernel="3,3" output="64" pads_begin="1,1" pads_end="1,1" quantization_level="FP32" strides="1,1" />
			<input>
				<port id="0">
					<dim>1</dim>
					<dim>64</dim>
					<dim>16</dim>
					<dim>16</dim>
				</port>
			</input>
			<output>
				<port id="1">
					<dim>1</dim>
					<dim>64</dim>
					<dim>16</dim>
					<dim>16</dim>
				</port>
			</output>
			<blobs>
				<biases offset="37912" size="256" />
				<weights offset="38168" size="147456" />
			</blobs>
		</layer>
		<layer name="ReLU2" type="ReLU" precision="FP32" id="6">
			<input>
				<port id="0">
					<dim>1</dim>
					<dim>64</dim>
					<dim>16</dim>
					<dim>16</dim>
				</port>
			</input>
			<output>
				<port id="1">
					<dim>1</dim>
					<dim>64</dim>
					<dim>16</dim>
					<dim>16</dim>
				</port>
			</output>
		</layer>
		<layer name="Convolution3" type="Convolution" precision="FP32" id="7">
			<data dilations="1,1" group="1" kernel="3,3" output="64" pads_begin="1,1" pads_end="1,1" quantization_level="I8" strides="1,1" />
			<input>
				<port id="0">
					<dim>1</dim>
					<dim>64</dim>
					<dim>16</dim>
					<dim>16</dim>
				</port>
			</input>
			<output>
				<port id="1">
					<dim>1</dim>
					<dim>64</dim>
					<dim>16</dim>
					<dim>16</dim>
				</port>
			</output>
			<blobs>
				<weights offset="185624" size="147456" />
			</blobs>
		</layer>
		<layer name="Eltwise1" type="Eltwise" precision="FP32" id="8">
			<data operation="sum" />
			<input>
				<port id="0">
					<dim>1</dim>
					<dim>64</dim>
					<dim>16</dim>
					<dim>16</dim>
				</port>
				<port id="1">
					<dim>1</dim>
					<dim>64</dim>
					<dim>16</dim>
					<dim>16</dim>
				</port>
			</input>
			<output>
				<port id="2">
					<dim>1</dim>
					<dim>64</dim>
					<dim>16</dim>
					<dim>16</dim>
				</port>
			</output>
		</layer>
		<layer name="Mul_1143/Fused_Mul_/FusedScaleShift_" type="ScaleShift" precision="FP32" id="9">
			<data broadcast="0" />
			<input>
				<port id="0">
					<dim>1</dim>
					<dim>64</dim>
					<dim>16</dim>
					<dim>16</dim>
				</port>
			</input>
			<output>
				<port id="1">
					<dim>1</dim>
					<dim>64</dim>
					<dim>16</dim>
					<dim>16</dim>
				</port>
			</output>
			<blobs>
				<biases offset="333080" size="256" />
				<weights offset="333336" size="256" />
			</blobs>
		</layer>
		<layer name="ReLU3" type="ReLU" precision="FP32" id="10">
			<input>
				<port id="0">
					<dim>1</dim>
					<dim>64</dim>
					<dim>16</dim>
					<dim>16</dim>
				</port>
			</input>
			<output>
				<port id="1">
					<dim>1</dim>
					<dim>64</dim>
					<dim>16</dim>
					<dim>16</dim>
				</port>
			</output>
		</layer>
		<layer name="Convolution6" type="Convolution" precision="FP32" id="11">
			<data dilations="1,1" group="1" kernel="1,1" output="128" pads_begin="0,0" pads_end="0,0" quantization_level="I8" strides="2,2" />
			<input>
				<port id="0">
					<dim>1</dim>
					<dim>64</dim>
					<dim>16</dim>
					<dim>16</dim>
				</port>
			</input>
			<output>
				<port id="1">
					<dim>1</dim>
					<dim>128</dim>
					<dim>8</dim>
					<dim>8</dim>
				</port>
			</output>
			<blobs>
				<weights offset="333592" size="32768" />
			</blobs>
		</layer>
		<layer name="Convolution4" type="Convolution" precision="FP32" id="12">
			<data dilations="1,1" group="1" kernel="3,3" output="128" pads_begin="1,1" pads_end="1,1" quantization_level="I8" strides="2,2" />
			<input>
				<port id="0">
					<dim>1</dim>
					<dim>64</dim>
					<dim>16</dim>
					<dim>16</dim>
				</port>
			</input>
			<output>
				<port id="1">
					<dim>1</dim>
					<dim>128</dim>
					<dim>8</dim>
					<dim>8</dim>
				</port>
			</output>
			<blobs>
				<biases offset="366360" size="512" />
				<weights offset="366872" size="294912" />
			</blobs>
		</layer>
		<layer name="ReLU4" type="ReLU" precision="FP32" id="13">
			<input>
				<port id="0">
					<dim>1</dim>
					<dim>128</dim>
					<dim>8</dim>
					<dim>8</dim>
				</port>
			</input>
			<output>
				<port id="1">
					<dim>1</dim>
					<dim>128</dim>
					<dim>8</dim>
					<dim>8</dim>
				</port>
			</output>
		</layer>
		<layer name="Convolution5" type="Convolution" precision="FP32" id="14">
			<data dilations="1,1" group="1" kernel="3,3" output="128" pads_begin="1,1" pads_end="1,1" quantization_level="I8" strides="1,1" />
			<input>
				<port id="0">
					<dim>1</dim>
					<dim>128</dim>
					<dim>8</dim>
					<dim>8</dim>
				</port>
			</input>
			<output>
				<port id="1">
					<dim>1</dim>
					<dim>128</dim>
					<dim>8</dim>
					<dim>8</dim>
				</port>
			</output>
			<blobs>
				<weights offset="661784" size="589824" />
			</blobs>
		</layer>
		<layer name="Eltwise2" type="Eltwise" precision="FP32" id="15">
			<data operation="sum" />
			<input>
				<port id="0">
					<dim>1</dim>
					<dim>128</dim>
					<dim>8</dim>
					<dim>8</dim>
				</port>
				<port id="1">
					<dim>1</dim>
					<dim>128</dim>
					<dim>8</dim>
					<dim>8</dim>
				</port>
			</input>
			<output>
				<port id="2">
					<dim>1</dim>
					<dim>128</dim>
					<dim>8</dim>
					<dim>8</dim>
				</port>
			</output>
		</layer>
		<layer name="Mul_1146/Fused_Mul_/FusedScaleShift_" type="ScaleShift" precision="FP32" id="16">
			<data broadcast="0" />
			<input>
				<port id="0">
					<dim>1</dim>
					<dim>128</dim>
					<dim>8</dim>
					<dim>8</dim>
				</port>
			</input>
			<output>
				<port id="1">
					<dim>1</dim>
					<dim>128</dim>
					<dim>8</dim>
					<dim>8</dim>
				</port>
			</output>
			<blobs>
				<biases offset="1251608" size="512" />
				<weights offset="1252120" size="512" />
			</blobs>
		</layer>
		<layer name="ReLU5" type="ReLU" precision="FP32" id="17">
			<input>
				<port id="0">
					<dim>1</dim>
					<dim>128</dim>
					<dim>8</dim>
					<dim>8</dim>
				</port>
			</input>
			<output>
				<port id="1">
					<dim>1</dim>
					<dim>128</dim>
					<dim>8</dim>
					<dim>8</dim>
				</port>
			</output>
		</layer>
		<layer name="Convolution9" type="Convolution" precision="FP32" id="18">
			<data dilations="1,1" group="1" kernel="1,1" output="256" pads_begin="0,0" pads_end="0,0" quantization_level="I8" strides="2,2" />
			<input>
				<port id="0">
					<dim>1</dim>
					<dim>128</dim>
					<dim>8</dim>
					<dim>8</dim>
				</port>
			</input>
			<output>
				<port id="1">
					<dim>1</dim>
					<dim>256</dim>
					<dim>4</dim>
					<dim>4</dim>
				</port>
			</output>
			<blobs>
				<weights offset="1252632" size="131072" />
			</blobs>
		</layer>
		<layer name="Convolution7" type="Convolution" precision="FP32" id="19">
			<data dilations="1,1" group="1" kernel="3,3" output="256" pads_begin="1,1" pads_end="1,1" quantization_level="I8" strides="2,2" />
			<input>
				<port id="0">
					<dim>1</dim>
					<dim>128</dim>
					<dim>8</dim>
					<dim>8</dim>
				</port>
			</input>
			<output>
				<port id="1">
					<dim>1</dim>
					<dim>256</dim>
					<dim>4</dim>
					<dim>4</dim>
				</port>
			</output>
			<blobs>
				<biases offset="1383704" size="1024" />
				<weights offset="1384728" size="1179648" />
			</blobs>
		</layer>
		<layer name="ReLU6" type="ReLU" precision="FP32" id="20">
			<input>
				<port id="0">
					<dim>1</dim>
					<dim>256</dim>
					<dim>4</dim>
					<dim>4</dim>
				</port>
			</input>
			<output>
				<port id="1">
					<dim>1</dim>
					<dim>256</dim>
					<dim>4</dim>
					<dim>4</dim>
				</port>
			</output>
		</layer>
		<layer name="Convolution8" type="Convolution" precision="FP32" id="21">
			<data dilations="1,1" group="1" kernel="3,3" output="256" pads_begin="1,1" pads_end="1,1" quantization_level="I8" strides="1,1" />
			<input>
				<port id="0">
					<dim>1</dim>
					<dim>256</dim>
					<dim>4</dim>
					<dim>4</dim>
				</port>
			</input>
			<output>
				<port id="1">
					<dim>1</dim>
					<dim>256</dim>
					<dim>4</dim>
					<dim>4</dim>
				</port>
			</output>
			<blobs>
				<weights offset="2564376" size="2359296" />
			</blobs>
		</layer>
		<layer name="Eltwise3" type="Eltwise" precision="FP32" id="22">
			<data operation="sum" />
			<input>
				<port id="0">
					<dim>1</dim>
					<dim>256</dim>
					<dim>4</dim>
					<dim>4</dim>
				</port>
				<port id="1">
					<dim>1</dim>
					<dim>256</dim>
					<dim>4</dim>
					<dim>4</dim>
				</port>
			</input>
			<output>
				<port id="2">
					<dim>1</dim>
					<dim>256</dim>
					<dim>4</dim>
					<dim>4</dim>
				</port>
			</output>
		</layer>
		<layer name="Mul_1149/Fused_Mul_/FusedScaleShift_" type="ScaleShift" precision="FP32" id="23">
			<data broadcast="0" />
			<input>
				<port id="0">
					<dim>1</dim>
					<dim>256</dim>
					<dim>4</dim>
					<dim>4</dim>
				</port>
			</input>
			<output>
				<port id="1">
					<dim>1</dim>
					<dim>256</dim>
					<dim>4</dim>
					<dim>4</dim>
				</port>
			</output>
			<blobs>
				<biases offset="4923672" size="1024" />
				<weights offset="4924696" size="1024" />
			</blobs>
		</layer>
		<layer name="ReLU7" type="ReLU" precision="FP32" id="24">
			<input>
				<port id="0">
					<dim>1</dim>
					<dim>256</dim>
					<dim>4</dim>
					<dim>4</dim>
				</port>
			</input>
			<output>
				<port id="1">
					<dim>1</dim>
					<dim>256</dim>
					<dim>4</dim>
					<dim>4</dim>
				</port>
			</output>
		</layer>
		<layer name="Convolution12" type="Convolution" precision="FP32" id="25">
			<data dilations="1,1" group="1" kernel="1,1" output="256" pads_begin="0,0" pads_end="0,0" quantization_level="I8" strides="2,2" />
			<input>
				<port id="0">
					<dim>1</dim>
					<dim>256</dim>
					<dim>4</dim>
					<dim>4</dim>
				</port>
			</input>
			<output>
				<port id="1">
					<dim>1</dim>
					<dim>256</dim>
					<dim>2</dim>
					<dim>2</dim>
				</port>
			</output>
			<blobs>
				<weights offset="4925720" size="262144" />
			</blobs>
		</layer>
		<layer name="Convolution10" type="Convolution" precision="FP32" id="26">
			<data dilations="1,1" group="1" kernel="3,3" output="256" pads_begin="1,1" pads_end="1,1" quantization_level="I8" strides="2,2" />
			<input>
				<port id="0">
					<dim>1</dim>
					<dim>256</dim>
					<dim>4</dim>
					<dim>4</dim>
				</port>
			</input>
			<output>
				<port id="1">
					<dim>1</dim>
					<dim>256</dim>
					<dim>2</dim>
					<dim>2</dim>
				</port>
			</output>
			<blobs>
				<biases offset="5187864" size="1024" />
				<weights offset="5188888" size="2359296" />
			</blobs>
		</layer>
		<layer name="ReLU8" type="ReLU" precision="FP32" id="27">
			<input>
				<port id="0">
					<dim>1</dim>
					<dim>256</dim>
					<dim>2</dim>
					<dim>2</dim>
				</port>
			</input>
			<output>
				<port id="1">
					<dim>1</dim>
					<dim>256</dim>
					<dim>2</dim>
					<dim>2</dim>
				</port>
			</output>
		</layer>
		<layer name="Convolution11" type="Convolution" precision="FP32" id="28">
			<data dilations="1,1" group="1" kernel="3,3" output="256" pads_begin="1,1" pads_end="1,1" quantization_level="I8" strides="1,1" />
			<input>
				<port id="0">
					<dim>1</dim>
					<dim>256</dim>
					<dim>2</dim>
					<dim>2</dim>
				</port>
			</input>
			<output>
				<port id="1">
					<dim>1</dim>
					<dim>256</dim>
					<dim>2</dim>
					<dim>2</dim>
				</port>
			</output>
			<blobs>
				<weights offset="7548184" size="2359296" />
			</blobs>
		</layer>
		<layer name="Eltwise4" type="Eltwise" precision="FP32" id="29">
			<data operation="sum" />
			<input>
				<port id="0">
					<dim>1</dim>
					<dim>256</dim>
					<dim>2</dim>
					<dim>2</dim>
				</port>
				<port id="1">
					<dim>1</dim>
					<dim>256</dim>
					<dim>2</dim>
					<dim>2</dim>
				</port>
			</input>
			<output>
				<port id="2">
					<dim>1</dim>
					<dim>256</dim>
					<dim>2</dim>
					<dim>2</dim>
				</port>
			</output>
		</layer>
		<layer name="Mul_1164/Fused_Mul_/FusedScaleShift_" type="ScaleShift" precision="FP32" id="30">
			<data broadcast="0" />
			<input>
				<port id="0">
					<dim>1</dim>
					<dim>256</dim>
					<dim>2</dim>
					<dim>2</dim>
				</port>
			</input>
			<output>
				<port id="1">
					<dim>1</dim>
					<dim>256</dim>
					<dim>2</dim>
					<dim>2</dim>
				</port>
			</output>
			<blobs>
				<biases offset="9907480" size="1024" />
				<weights offset="9908504" size="1024" />
			</blobs>
		</layer>
		<layer name="ReLU9" type="ReLU" precision="FP32" id="31">
			<input>
				<port id="0">
					<dim>1</dim>
					<dim>256</dim>
					<dim>2</dim>
					<dim>2</dim>
				</port>
			</input>
			<output>
				<port id="1">
					<dim>1</dim>
					<dim>256</dim>
					<dim>2</dim>
					<dim>2</dim>
				</port>
			</output>
		</layer>
		<layer name="emotion5_conv1" type="Convolution" precision="FP32" id="32">
			<data dilations="1,1" group="1" kernel="2,2" output="5" pads_begin="0,0" pads_end="0,0" quantization_level="I8" strides="1,1" />
			<input>
				<port id="0">
					<dim>1</dim>
					<dim>256</dim>
					<dim>2</dim>
					<dim>2</dim>
				</port>
			</input>
			<output>
				<port id="1">
					<dim>1</dim>
					<dim>5</dim>
					<dim>1</dim>
					<dim>1</dim>
				</port>
			</output>
			<blobs>
				<biases offset="9909528" size="20" />
				<weights offset="9909548" size="20480" />
			</blobs>
		</layer>
		<layer name="prob_emotion" type="SoftMax" precision="FP32" id="33">
			<data axis="1" />
			<input>
				<port id="0">
					<dim>1</dim>
					<dim>5</dim>
					<dim>1</dim>
					<dim>1</dim>
				</port>
			</input>
			<output>
				<port id="1">
					<dim>1</dim>
					<dim>5</dim>
					<dim>1</dim>
					<dim>1</dim>
				</port>
			</output>
		</layer>
	</layers>
	<edges>
		<edge from-layer="0" from-port="0" to-layer="1" to-port="0" />
		<edge from-layer="1" from-port="1" to-layer="2" to-port="0" />
		<edge from-layer="2" from-port="1" to-layer="3" to-port="0" />
		<edge from-layer="3" from-port="1" to-layer="4" to-port="0" />
		<edge from-layer="4" from-port="1" to-layer="5" to-port="0" />
		<edge from-layer="4" from-port="1" to-layer="8" to-port="1" />
		<edge from-layer="5" from-port="1" to-layer="6" to-port="0" />
		<edge from-layer="6" from-port="1" to-layer="7" to-port="0" />
		<edge from-layer="7" from-port="1" to-layer="8" to-port="0" />
		<edge from-layer="8" from-port="2" to-layer="9" to-port="0" />
		<edge from-layer="9" from-port="1" to-layer="10" to-port="0" />
		<edge from-layer="10" from-port="1" to-layer="12" to-port="0" />
		<edge from-layer="10" from-port="1" to-layer="11" to-port="0" />
		<edge from-layer="11" from-port="1" to-layer="15" to-port="1" />
		<edge from-layer="12" from-port="1" to-layer="13" to-port="0" />
		<edge from-layer="13" from-port="1" to-layer="14" to-port="0" />
		<edge from-layer="14" from-port="1" to-layer="15" to-port="0" />
		<edge from-layer="15" from-port="2" to-layer="16" to-port="0" />
		<edge from-layer="16" from-port="1" to-layer="17" to-port="0" />
		<edge from-layer="17" from-port="1" to-layer="19" to-port="0" />
		<edge from-layer="17" from-port="1" to-layer="18" to-port="0" />
		<edge from-layer="18" from-port="1" to-layer="22" to-port="1" />
		<edge from-layer="19" from-port="1" to-layer="20" to-port="0" />
		<edge from-layer="20" from-port="1" to-layer="21" to-port="0" />
		<edge from-layer="21" from-port="1" to-layer="22" to-port="0" />
		<edge from-layer="22" from-port="2" to-layer="23" to-port="0" />
		<edge from-layer="23" from-port="1" to-layer="24" to-port="0" />
		<edge from-layer="24" from-port="1" to-layer="26" to-port="0" />
		<edge from-layer="24" from-port="1" to-layer="25" to-port="0" />
		<edge from-layer="25" from-port="1" to-layer="29" to-port="1" />
		<edge from-layer="26" from-port="1" to-layer="27" to-port="0" />
		<edge from-layer="27" from-port="1" to-layer="28" to-port="0" />
		<edge from-layer="28" from-port="1" to-layer="29" to-port="0" />
		<edge from-layer="29" from-port="2" to-layer="30" to-port="0" />
		<edge from-layer="30" from-port="1" to-layer="31" to-port="0" />
		<edge from-layer="31" from-port="1" to-layer="32" to-port="0" />
		<edge from-layer="32" from-port="1" to-layer="33" to-port="0" />
	</edges>
	<statistics>
		<layer>
			<name>Convolution1</name>
			<min>… -0.000000</min>
			<max>… -0.000000</max>
		</layer>
		<layer>
			<name>Convolution10</name>
			<min>… -0.236104</min>
			<max>… 0.196993</max>
		</layer>
		<layer>
			<name>Convolution11</name>
			<min>… -0.031356</min>
			<max>… 0.047509</max>
		</layer>
		<layer>
			<name>Convolution12</name>
			<min>… -0.011693</min>
			<max>… 0.007895</max>
		</layer>
		<layer>
			<name>Convolution2</name>
			<min>… -1.259734</min>
			<max>… 1.622820</max>
		</layer>
		<layer>
			<name>Convolution3</name>
			<min>… -0.765407</min>
			<max>… 0.347093</max>
		</layer>
		<layer>
			<name>Convolution4</name>
			<min>… -0.522383</min>
			<max>… 0.376153</max>
		</layer>
		<layer>
			<name>Convolution5</name>
			<min>… -0.231079</min>
			<max>… 0.125047</max>
		</layer>
		<layer>
			<name>Convolution6</name>
			<min>… -0.030149</min>
			<max>… 0.024469</max>
		</layer>
		<layer>
			<name>Convolution7</name>
			<min>… -0.363253</min>
			<max>… 0.279418</max>
		</layer>
		<layer>
			<name>Convolution8</name>
			<min>… -0.121357</min>
			<max>… 0.036832</max>
		</layer>
		<layer>
			<name>Convolution9</name>
			<min>… -0.016895</min>
			<max>… 0.013972</max>
		</layer>
		<layer>
			<name>Eltwise1</name>
			<min>… -0.765407</min>
			<max>… 0.347093</max>
		</layer>
		<layer>
			<name>Eltwise2</name>
			<min>… -0.238173</min>
			<max>… 0.136535</max>
		</layer>
		<layer>
			<name>Eltwise3</name>
			<min>… -0.131149</min>
			<max>… 0.040352</max>
		</layer>
		<layer>
			<name>Eltwise4</name>
			<min>… -0.036040</min>
			<max>… 0.048921</max>
		</layer>
		<layer>
			<name>Mul_1143/Fused_Mul_/FusedScaleShift_</name>
			<min>… -1.094585</min>
			<max>… 0.550165</max>
		</layer>
		<layer>
			<name>Mul_1146/Fused_Mul_/FusedScaleShift_</name>
			<min>… -0.399462</min>
			<max>… 0.291024</max>
		</layer>
		<layer>
			<name>Mul_1149/Fused_Mul_/FusedScaleShift_</name>
			<min>… -0.344262</min>
			<max>… 0.125006</max>
		</layer>
		<layer>
			<name>Mul_1152/Fused_Mul_/FusedScaleShift_</name>
			<min>-0.293928, -0.949676, -0.918652</min>
			<max>1.029885, 1.080125, 0.812043</max>
		</layer>
		<layer>
			<name>Mul_1164/Fused_Mul_/FusedScaleShift_</name>
			<min>… -0.305243</min>
			<max>… 0.502127</max>
		</layer>
		<layer>
			<name>Pooling1</name>
			<min>… -0.000000</min>
			<max>… -0.000000</max>
		</layer>
		<layer>
			<name>ReLU1</name>
			<min>… -0.000000</min>
			<max>… -0.000000</max>
		</layer>
		<layer>
			<name>ReLU2</name>
			<min>… -0.000000</min>
			<max>… 1.622820</max>
		</layer>
		<layer>
			<name>ReLU3</name>
			<min>… -0.000000</min>
			<max>… 0.550165</max>
		</layer>
		<layer>
			<name>ReLU4</name>
			<min>… -0.000000</min>
			<max>… 0.376153</max>
		</layer>
		<layer>
			<name>ReLU5</name>
			<min>… -0.000000</min>
			<max>… 0.291024</max>
		</layer>
		<layer>
			<name>ReLU6</name>
			<min>… -0.000000</min>
			<max>… 0.279418</max>
		</layer>
		<layer>
			<name>ReLU7</name>
			<min>… -0.000000</min>
			<max>… 0.125006</max>
		</layer>
		<layer>
			<name>ReLU8</name>
			<min>… -0.000000</min>
			<max>… 0.196993</max>
		</layer>
		<layer>
			<name>ReLU9</name>
			<min>… -0.000000</min>
			<max>… 0.502127</max>
		</layer>
		<layer>
			<name>data</name>
			<min>0.000000, 0.000000, 0.000000</min>
			<max>255.000000, 255.000000, 255.000000</max>
		</layer>
		<layer>
			<name>emotion5_conv1</name>
			<min>-2.357162, -4.232695, -2.859177, -3.994715, -2.727787</min>
			<max>2.578465, 5.125623, 4.921786, 3.465072, 4.988020</max>
		</layer>
		<layer>
			<name>prob_emotion</name>
			<min>0.000328, 0.000194, 0.000401, 0.000083, 0.000590</min>
			<max>0.704585, 0.985934, 0.982512, 0.885204, 0.968339</max>
		</layer>
	</statistics>
</net>
